snapshots/Epoch99.pth (torch, 285215 bytes, 21 tensors)

base_conv1.weight f4 [32, 3, 3, 3]
000000 ef 3b e4 3c c5 50 0e 3c a4 98 75 3d e7 5e 23 3c
       0.02786061 0.008686249 0.059960023 0.009971357
000010 64 6e be bc be fa d5 3c 09 8b 18 3d cb c4 8b bc
       -0.023245998 0.02612054 0.03724197 -0.017061612
000020 b1 b2 17 3d 7c 5f d0 bc 42 fe 14 3d 7f e1 13 3d
       0.037035648 -0.025436155 0.03637529 0.03610372
000030 c3 9d ad 3c e6 5f 90 bc 01 33 12 3d 90 6b 24 3d
       0.02119339 -0.017623853 0.035693172 0.040141642
000040 12 e5 0c bc db 52 08 3d 7b 83 82 bc 30 8c 39 bc
       -0.0085995365 0.033282142 -0.015931835 -0.011324927
000050 04 a0 22 3d 5f 87 a6 3b b2 f4 fd bc c8 b1 0e 3d
       0.039703384 0.0050820555 -0.031000469 0.034837514
000060 81 a3 20 3d d5 00 fa 3c a0 86 6a 3d 4e a5 1d bb
       0.03921843 0.030517975 0.057257295 -0.0024054828
000070 dd b0 17 bd 5a 62 d8 3b 54 b4 af 3b 63 72 ee bb
       -0.037033904 0.0066035213 0.005362073 -0.0072768196
000080 80 de 51 3b dd 48 9c 3c f4 07 cc 3a 92 37 61 bc
       0.003202349 0.019077713 0.0015566335 -0.013746159
000090 07 01 c8 3c 3f e7 a8 bb 83 8b 33 3c ad 03 9d bb
       0.024414552 -0.00515452 0.010958555 -0.004791698
0000a0 e6 42 84 3a 49 0b cf 3c ee c0 87 3a 2c c2 42 ba
       0.0010090738 0.025273936 0.001035718 -0.00074294466
0000b0 34 5b 78 3c 42 ce 4f bc 9d a0 53 3c b6 f4 e1 3b
       0.015158463 -0.012683453 0.012916711 0.006895627
0000c0 13 6d e3 3c 2f a5 c2 3c 70 92 36 3d 90 7f 3d bc
       0.027761972 0.023760406 0.044573247 -0.011566058
0000d0 eb 54 e6 bb 64 a1 df 3c 6f cf 66 3c 3f 1b 92 bc
       -0.007029166 0.027298637 0.014087542 -0.017835258
0000e0 cc 1a a7 bc df e2 e1 ba 0e f3 99 bc 50 0c 97 bc
       -0.02039852 -0.001723375 -0.018792655 -0.018438488
0000f0 22 a4 38 3d ee 42 0c ba 23 fa da bc 78 4f f5 3c
       0.045078404 -0.00053505495 -0.026730603 0.02994512
000100 57 af 49 bb 97 99 d5 bc f4 8d c8 3c 4d 1b 43 3c
       -0.0030774677 -0.026074214 0.024481751 0.0119083645
000110 36 08 b2 bb 5c 95 4f 3d bf 47 96 3c 19 d0 1a ba
       -0.0054331077 0.05067955 0.018344758 -0.0005905643
000120 a4 5c 22 3d 4a 05 74 bb 9f 64 91 bb 8b 2c 17 3d
       0.03963913 -0.0037234598 -0.004437044 0.036907714
000130 04 6a 51 3c 4f 61 a8 3a 39 d5 27 3d 37 28 ae 3c
       0.012781624 0.0012846383 0.04097483 0.02125941
000140 e5 31 2f 3d aa ed 0d 3b 48 26 1a bc d9 ca dd bb
       0.042772193 0.0021656551 -0.009408541 -0.006768566
000150 c8 5a d1 ba a1 c5 8c 3c 41 52 47 bc fa 29 b7 3c
       -0.001597249 0.01718408 -0.012165607 0.022358883
000160 61 9d 25 3c a7 79 d9 bc 80 0e 41 bd 61 2d 05 bc
       0.010108323 -0.026547266 -0.04713297 -0.008128495
000170 65 8e 41 3b a9 98 8b 3c 4e 7d 08 bd d8 40 26 3d
       0.0029534337 0.017040567 -0.033322625 0.040589184
000180 b9 eb ed bc 37 1c 1c 3b 78 46 c2 3b 3d 72 83 3c
       -0.029043065 0.0023820528 0.0059288107 0.016045684
000190 31 90 39 3c 2f e5 f4 3c 53 a3 3b 3d 08 b4 ea ba
       0.011325882 0.02989444 0.045810055 -0.0017906437
0001a0 5a 14 81 bc bc 5a 4f 3c 95 be fa 3c 83 3f 1a bc
       -0.015756775 0.01265591 0.030608455 -0.009414556
0001b0 28 93 f2 3c 21 08 9e 3c 58 15 9f 3d 53 09 4d bc
       0.029611185 0.019290986 0.07767743 -0.01251443
0001c0 f1 5a 2b bd b3 df c9 3c fe 91 13 bd ab 0a 53 bd
       -0.041834775 0.0246428 -0.0360279 -0.051523846
0001d0 01 b6 30 bc d5 45 b7 3c 05 03 bd 3b da d7 6c 3d
       -0.010785581 0.022372166 0.005768182 0.05782304
0001e0 d6 84 86 bc 67 9e fe bc 78 29 38 3d 29 8a 21 bd
       -0.016420763 -0.031081391 0.044961423 -0.0394384
0001f0 61 7f 5a bd dc 4d 75 3b 84 22 59 3c bb 08 c9 3c
       -0.053344134 0.003743044 0.013252858 0.024540296
000200 a8 47 86 3d cc 0b 4c bc 42 c8 0b bd d6 43 ad 3c
       0.06556636 -0.0124539845 -0.034126528 0.02115051
000210 22 e5 14 bd 19 6d 41 bd 4d ff 08 3c a0 a1 f8 bb
       -0.03635133 -0.047223184 0.00836165 -0.0075876266
000220 22 aa 4c 3c d1 95 38 3c 72 f7 b2 bb 82 b2 5d bc
       0.012491735 0.011266188 -0.0054616267 -0.013531329
000230 af bd 73 bc b5 2a 4a bd c7 04 19 bc dc c2 93 bc
       -0.014876767 -0.049357135 -0.009339518 -0.018037252
000240 ab b4 e4 bc e7 cd 1b 3c 62 e5 89 bc 75 42 c7 bc
       -0.02791818 0.00950954 -0.016833011 -0.024323681
000250 3e 2e f9 3c be af a4 bc 62 02 8b bc e9 e9 2e 3c
       0.030417558 -0.020103332 -0.01696891 0.010675886
000260 58 52 d4 bc 3d f8 69 bc 4b 3f 7b 3c ad 3b fc bc
       -0.02591817 -0.014280376 0.015334914 -0.030790174
000270 10 57 08 bc 2b 68 8a 3a 13 a3 a0 bc c1 88 25 bd
       -0.008321539 0.0010559609 -0.01960901 -0.04041362
000280 11 89 a6 bc 9b 7b 9d bd 32 10 35 3c 63 e0 39 3d
       -0.02032903 -0.076895915 0.011051225 0.045380007
000290 89 ba 9a bb 4c db c5 3c a5 02 59 3d 23 5a e6 bb
       -0.0047219438 0.02415242 0.052981038 -0.007029788
0002a0 d0 9f 40 bc f5 df 94 3c eb bf 9d bc 43 bd 9a bc
       -0.011756852 0.018173197 -0.019256553 -0.018889075
0002b0 b7 f4 c4 3c 32 14 07 bc 1c ec 5a bb 67 ec af 3b
       0.02404247 -0.008244561 -0.0033404892 0.0053687575
0002c0 35 7e 16 bc 0d a8 20 3b e4 09 10 3d a9 8b b7 bc
       -0.009185364 0.0024514229 0.035165682 -0.022405462
0002d0 09 5f b3 3c f8 cc c5 3a 3f f9 cc 3b ab c2 a6 3b
       0.021895902 0.0015090993 0.0062552984 0.005089124
0002e0 d1 f3 65 3d b0 d2 4a 3b 85 b8 8c 3c 37 20 9c 3c
       0.056140725 0.0030948333 0.01717783 0.01905833
0002f0 9b fb 5a bc 71 98 01 80 bc b5 00 00 d5 c7 00 80
       -0.0133656515 -1.46521e-40 6.5194e-41 -7.1686e-41
000300 c9 d9 00 00 64 13 02 80 6c 0f 01 80 ab 1a 00 00
       7.8127e-41 -1.90627e-40 -9.7368e-41 9.567e-42
000310 88 96 00 00 ae 45 00 80 43 19 00 00 df de 00 80
       5.4e-41 -2.4996e-41 9.062e-42 -7.9951e-41
000320 fa 03 00 80 37 5a 01 00 38 1c 01 00 68 e6 00 80
       -1.427e-42 1.24198e-40 1.01958e-40 -8.2654e-41
000330 99 1d 01 80 2b d2 00 00 ed 37 01 00 41 62 01 80
       -1.02453e-40 7.5394e-41 1.11898e-40 -1.27082e-40
000340 89 a9 01 00 d3 1c 01 00 7c ce 00 80 ca 12 01 00
       1.52653e-40 1.02176e-40 -7.4073e-41 9.8576e-41
000350 8a 25 01 80 7f 9f 01 00 d6 85 00 80 ec 00 00 00
       -1.05302e-40 1.49052e-40 -4.8011e-41 3.31e-43
000360 87 7b 00 00 bf da 00 80 7d 0a 01 80 cb 4d 01 00
       4.4313e-41 -7.8471e-41 -9.5598e-41 1.19742e-40
000370 b4 3c 01 80 e5 88 00 80 39 b3 00 80 7d b8 00 80
       -1.13612e-40 -4.9109e-41 -6.4293e-41 -6.6182e-41
000380 c1 c2 00 80 12 2e 00 80 c6 e7 00 00 56 ab 00 80
       -6.9865e-41 -1.6527e-41 8.3145e-41 -6.1464e-41
000390 1e fa 00 80 dc e8 00 80 a9 c9 00 00 85 cb 01 00
       -8.9725e-41 -8.3534e-41 7.2342e-41 1.64845e-40
0003a0 2c a7 00 00 15 55 00 00 00 55 00 00 f5 fc 00 00
       5.997e-41 3.0522e-41 3.0492e-41 9.0744e-41
0003b0 51 f2 01 80 a1 29 01 00 7e f2 00 00 ea ba 00 00
       -1.78762e-40 1.06769e-40 8.699e-41 6.7052e-41
0003c0 6f fb 01 00 ec b8 00 80 87 bb 01 80 bd aa cc bc
       1.82033e-40 -6.6337e-41 -1.59108e-40 -0.024983758
0003d0 96 81 a5 bc 24 3c d6 bc 25 b9 b2 3c 77 ba 96 3c
       -0.020203393 -0.026151724 0.0218168 0.01839946
0003e0 2e f1 3d bd a7 5f 5f bd 5f 94 03 bc ac c9 01 bd
       -0.046372585 -0.05453458 -0.00803098 -0.03168647
0003f0 b1 e3 aa 3c 8c ee 4a 3b 2a 66 34 bd 67 c8 38 3c
       0.020860525 0.003096494 -0.044042744 0.011278248

base_conv1.bias f4 [32]
000000 ac c6 80 3d de 90 5b 3d fd 77 0f 3d 06 94 0f 3e
       0.06287894 0.053604953 0.03502654 0.1402131
000010 2e 0e 1c bb 2f ac 78 3d 72 e3 c4 3b 3b 2f c2 8d
       -0.0023812163 0.060711082 0.006008559 -1.1967543e-30
000020 88 7a 4c a5 1d 5e bc 3d 97 c8 a6 bd 11 d0 c3 3d
       -1.7735695e-16 0.09197638 -0.08143728 0.0956117
000030 c4 8c 0a ba b1 46 34 3e 24 55 5c 3e 4e 68 2d bb
       -0.0005285258 0.17605092 0.21516854 -0.0026459876
000040 b1 ef e2 3d 13 ff 24 be d3 c8 9d b9 d8 50 61 3b
       0.11080874 -0.16112928 -0.00030095 0.0034380462
000050 b7 d5 bd bd 2b 4e 5c a1 70 af b1 bd b8 cf 2e 3d
       -0.092692785 -7.4642354e-19 -0.0867604 0.042678565
000060 6e 5f 63 a5 38 5d 4e ae de 5c ab bc 88 ba 53 3e
       -1.9721444e-16 -4.6921772e-11 -0.020918306 0.20676625
000070 f6 2d 5a 3e a7 c1 2d bb 10 a5 62 3e 29 1e 49 3e
       0.21306595 -0.002651313 0.22133279 0.19640411

base_conv2.weight f4 [32, 64, 3, 3]
000000 9d c7 01 00 b6 75 00 00 99 71 00 00 12 1a 01 80
       1.63443e-40 4.2227e-41 4.0751e-41 -1.01188e-40
000010 c0 7a 01 00 25 41 01 80 8b 73 00 80 25 ee 00 80
       1.3587e-40 -1.15205e-40 -4.1449e-41 -8.543e-41
000020 c6 bd 00 00 a9 e9 00 80 5c 31 00 00 a7 9f 00 80
       6.8078e-41 -8.3821e-41 1.7707e-41 -5.7272e-41
000030 a9 98 00 80 89 95 01 80 08 96 00 00 d3 64 01 00
       -5.4764e-41 -1.45479e-40 5.3821e-41 1.28004e-40
000040 10 d1 00 00 00 b3 01 00 b2 e3 00 00 e5 f2 00 80
       7.4997e-41 1.56049e-40 8.1682e-41 -8.7134e-41
000050 f1 d0 00 00 a1 cb 00 00 0f a7 00 80 58 c7 00 80
       7.4954e-41 7.3048e-41 -5.993e-41 -7.1511e-41
000060 40 04 01 00 fd de 00 00 0a 72 00 80 98 ac 00 00
       9.336e-41 7.9993e-41 -4.091e-41 6.1915e-41
000070 01 09 01 00 f2 31 00 80 b2 03 00 00 a5 ba 00 00
       9.5065e-41 -1.7917e-41 1.326e-42 6.6955e-41
000080 59 62 00 80 47 15 00 00 08 04 01 80 98 72 00 80
       -3.528e-41 7.633e-42 -9.3282e-41 -4.1108e-41
000090 5c be 00 80 13 7d 00 00 a6 16 00 80 84 d2 00 80
       -6.8288e-41 4.4868e-41 -8.125e-42 -7.5519e-41
0000a0 ed ac 00 80 69 d7 00 00 0a 23 00 00 52 0d 01 00
       -6.2034e-41 7.7275e-41 1.257e-41 9.6614e-41
0000b0 de 29 00 80 71 04 00 00 93 4f 00 80 64 be 00 80
       -1.5019e-41 1.593e-42 -2.8546e-41 -6.8299e-41
0000c0 d4 36 00 80 a7 1e 01 80 b4 98 00 80 97 cc 00 00
       -1.9669e-41 -1.02831e-40 -5.478e-41 7.3393e-41
0000d0 17 3b 01 00 7c 43 01 00 a1 d1 00 00 b1 12 00 00
       1.13033e-40 1.16044e-40 7.52e-41 6.705e-42
0000e0 ee b4 00 80 d0 14 01 00 1d 85 00 80 c1 c0 00 80
       -6.4905e-41 9.9302e-41 -4.7752e-41 -6.9147e-41
0000f0 ba 12 00 00 74 2d 00 00 45 65 00 00 8d 11 01 00
       6.718e-42 1.6306e-41 3.6329e-41 9.8132e-41
000100 36 1d 00 80 3b b6 00 80 57 81 00 80 61 69 00 00
       -1.0479e-41 -6.5372e-41 -4.6398e-41 3.7803e-41
000110 d7 3d 00 00 ad 70 00 80 c5 81 00 00 16 21 01 80
       2.2184e-41 -4.042e-41 4.6553e-41 -1.03704e-40
000120 e3 d0 00 80 1e 49 00 80 43 57 00 00 fb 0b 01 00
       -7.4934e-41 -2.623e-41 3.1304e-41 9.6133e-41
000130 5f 43 01 80 27 4a 01 80 72 cb 00 00 5f 23 00 00
       -1.16004e-40 -1.18436e-40 7.2982e-41 1.2689e-41
000140 f6 19 01 80 f9 f8 00 80 e5 10 00 80 bc 4f 00 80
       -1.01149e-40 -8.9315e-41 -6.06e-42 -2.8603e-41
000150 20 35 01 00 63 af 00 80 33 83 00 80 a4 3f 00 80
       1.10893e-40 -6.2917e-41 -4.7065e-41 -2.283e-41
000160 e8 d9 01 00 63 c7 00 80 1f a9 00 00 c9 a1 00 80
       1.70006e-40 -7.1526e-41 6.0669e-41 -5.8038e-41
000170 c4 06 00 80 87 e8 01 80 f9 f7 00 80 33 5c 01 80
       -2.427e-42 -1.7525e-40 -8.8956e-41 -1.2491e-40
000180 64 bc 00 00 85 dc 00 80 f5 2c 01 80 dd e5 00 00
       6.7582e-41 -7.9108e-41 -1.07963e-40 8.246e-41
000190 45 3b 00 00 47 a4 00 00 86 33 00 80 f9 1c 00 00
       2.1262e-41 5.8932e-41 -1.8483e-41 1.0393e-41
0001a0 e4 3f 00 00 f5 d5 00 00 63 96 01 00 34 eb 00 00
       2.292e-41 7.6753e-41 1.45784e-40 8.4375e-41
0001b0 c7 b3 00 00 39 92 01 80 35 54 00 80 d3 93 00 00
       6.4492e-41 -1.4429e-40 -3.0208e-41 5.303e-41
0001c0 0e ee 00 00 c6 b5 00 80 d0 32 00 80 55 e4 00 80
       8.5398e-41 -6.5208e-41 -1.8228e-41 -8.191e-41
0001d0 45 27 00 00 f7 fb 00 80 68 a1 00 00 54 e4 00 80
       1.4087e-41 -9.0388e-41 5.7902e-41 -8.1909e-41
0001e0 15 0d 01 80 6d 30 00 00 0c f2 00 80 6e bf 00 80
       -9.6528e-41 1.7372e-41 -8.683e-41 -6.8672e-41
0001f0 bd a2 01 00 9a 6f 00 80 1d 2e 01 00 aa 6d 00 00
       1.50215e-40 -4.0035e-41 1.08378e-40 3.934e-41
000200 bd 40 01 80 2a 63 01 80 15 cf 00 80 5b c4 00 00
       -1.15059e-40 -1.27409e-40 -7.4287e-41 7.0439e-41
000210 86 24 00 80 e8 df 00 80 f0 6e 01 80 e9 cd 01 80
       -1.3102e-41 -8.0322e-41 -1.31632e-40 -1.65702e-40
000220 59 d1 00 80 fb 47 00 00 86 03 00 80 e3 11 01 80
       -7.51e-41 2.5822e-41 -1.264e-42 -9.8252e-41
000230 4b 50 00 00 24 06 01 00 66 09 00 80 f0 f4 00 80
       2.8804e-41 9.4038e-41 -3.372e-42 -8.7867e-41
000240 e6 27 00 00 c4 15 00 80 c1 08 01 00 2b 0f 01 80
       1.4313e-41 -7.808e-42 9.4976e-41 -9.7277e-41
000250 e3 89 00 00 ec 20 01 00 50 a4 00 80 df 1c 00 80
       4.9464e-41 1.03646e-40 -5.8944e-41 -1.0357e-41
000260 7d 72 00 00 94 b3 00 80 6f 87 00 80 c3 db 00 00
       4.107e-41 -6.442e-41 -4.8584e-41 7.8836e-41
000270 be 1e 00 00 b7 ef 00 80 bc da 00 00 8d 63 00 80
       1.1028e-41 -8.5993e-41 7.8467e-41 -3.5712e-41
000280 37 5e 00 00 20 9c 01 80 ca db 01 00 81 22 00 00
       3.3798e-41 -1.47843e-40 1.70681e-40 1.2378e-41
000290 23 16 02 80 4f 79 00 80 c6 36 01 80 f8 3b 00 00
       -1.91612e-40 -4.3517e-41 -1.11485e-40 2.1513e-41
0002a0 30 de 00 80 91 7f 00 80 d8 97 00 80 e1 4b 00 80
       -7.9706e-41 -4.5762e-41 -5.4471e-41 -2.722e-41
0002b0 dc 20 00 80 2b 7e 00 00 8b 67 00 80 b7 c1 00 80
       -1.1788e-41 4.526e-41 -3.7144e-41 -6.9492e-41
0002c0 96 77 00 80 da 23 00 80 64 97 01 00 9f 96 00 00
       -4.29e-41 -1.2861e-41 1.46144e-40 5.4033e-41
0002d0 39 6d 00 80 a9 15 01 80 e9 27 01 00 80 29 01 00
       -3.9182e-41 -9.9606e-41 1.06153e-40 1.06723e-40
0002e0 42 88 00 00 9c 60 00 80 ab 24 00 00 c1 b4 00 80
       4.888e-41 -3.4657e-41 1.3154e-41 -6.4842e-41
0002f0 45 96 00 80 12 c8 00 00 f1 1c 01 00 dc 28 01 80
       -5.3907e-41 7.1772e-41 1.02218e-40 -1.06493e-40
000300 6b 55 01 00 3f 37 00 80 31 0d 01 80 74 a1 00 80
       1.22478e-40 -1.9819e-41 -9.6568e-41 -5.7918e-41
000310 ec 34 00 00 73 c4 00 00 22 50 00 80 4b 6b 00 00
       1.8985e-41 7.0473e-41 -2.8746e-41 3.849e-41
000320 94 90 00 80 92 46 01 00 44 c2 00 80 8c c2 00 80
       -5.1865e-41 1.17151e-40 -6.969e-41 -6.979e-41
000330 f7 6b 00 80 ff cb 01 80 23 0f 01 00 9d 8c 00 80
       -3.873e-41 -1.65016e-40 9.7266e-41 -5.0443e-41
000340 61 33 01 00 e9 a8 00 00 27 b1 00 80 8a 6a 01 80
       1.10267e-40 6.0594e-41 -6.355e-41 -1.30055e-40
000350 eb b2 01 00 65 a3 00 80 84 bd 00 80 74 69 01 80
       1.56019e-40 -5.8615e-41 -6.7985e-41 -1.29665e-40
000360 f1 60 01 00 75 fe 01 80 2a 1e 01 80 5e f0 01 00
       1.26612e-40 -1.83117e-40 -1.02656e-40 1.78063e-40
000370 dc 11 00 00 e2 ed 00 00 fd 1e 00 00 05 5d 00 00
       6.407e-42 8.5336e-41 1.1117e-41 3.3369e-41
000380 f2 9a 00 80 8b ee 00 00 9c 20 01 80 01 7b 00 80
       -5.5584e-41 8.5573e-41 -1.03534e-40 -4.4125e-41
000390 6b 84 00 00 6f 81 00 00 36 34 00 80 0c 59 00 80
       4.7503e-41 4.6432e-41 -1.873e-41 -3.1944e-41
0003a0 a5 e7 00 80 c7 34 01 00 cc cd 00 80 37 44 00 00
       -8.3098e-41 1.10768e-40 -7.3826e-41 2.4471e-41
0003b0 ad 1a 01 80 a0 ca 00 00 06 3e 00 80 2a 60 01 00
       -1.01405e-40 7.2688e-41 -2.225e-41 1.26333e-40
0003c0 f1 67 00 00 de 06 01 00 40 d9 00 80 ae 26 00 00
       3.7287e-41 9.4299e-41 -7.7935e-41 1.3876e-41
0003d0 c5 36 01 80 8e 67 00 80 fa 7e 00 80 76 fe 00 00
       -1.11483e-40 -3.7148e-41 -4.555e-41 9.1283e-41
0003e0 ae 0d 01 80 18 f4 00 00 5b 70 01 80 95 f3 00 00
       -9.6743e-41 8.7564e-41 -1.32141e-40 8.7381e-41
0003f0 26 e9 00 80 e0 e2 01 00 be a9 00 00 9f ca 00 00
       -8.3638e-41 1.73223e-40 6.0892e-41 7.2687e-41

base_conv2.bias f4 [32]
000000 2c 55 01 00 76 bb c6 3b 38 1d 01 80 7a 0a 00 80
       1.2239e-40 0.0060648276 -1.02317e-40 -3.758e-42
000010 6a 51 00 80 f9 67 00 00 c1 b1 83 3d 54 e1 8e 3d
       -2.9206e-41 3.7298e-41 0.06430388 0.06976572
000020 2a e7 95 3d 91 3d 00 00 59 b4 6f bc 4a f5 4b 3b
       0.07319482 2.2086e-41 -0.014630401 0.0031121545
000030 e1 94 00 00 a5 8b 00 80 8e 20 00 00 4e 3c 2b 3d
       5.3408e-41 -5.0095e-41 1.1678e-41 0.041805558
000040 51 a1 c7 3d b3 51 00 00 25 2a 00 00 88 7a 00 80
       0.097475655 2.9308e-41 1.5119e-41 -4.3956e-41
000050 c5 03 00 80 c3 56 00 00 45 2a 01 00 19 70 00 80
       -1.352e-42 3.1124e-41 1.06999e-40 -4.0213e-41
000060 71 10 82 3d e4 17 6f 3d 74 a0 b9 3c 4c 98 5b 3d
       0.06350792 0.058372393 0.022659518 0.05361204
000070 b3 a1 e5 3d d1 24 35 3d ea 7f d7 3c f7 14 00 00
       0.11212482 0.044224564 0.026306111 7.521e-42

base_conv3.weight f4 [32, 64, 3, 3]
000000 cb ae 32 3c c8 c9 8b bc 36 f6 08 3b 1b 0f 4b 3c
       0.010905932 -0.01706399 0.0020898706 0.012393738
000010 60 81 06 3d b7 7c f2 bc 7c 4e 96 3c 2d 64 87 3c
       0.032838225 -0.029600484 0.018347971 0.01652726
000020 9b cd 9b 3c f3 64 30 bd 50 7c c8 bc 71 5b 04 3d
       0.019018939 -0.043065023 -0.02447334 0.032313768
000030 53 c1 7f bc 69 7b bc bc 8f fb da 3b 69 2a 40 3c
       -0.015610057 -0.023008065 0.00668282 0.011728861
000040 32 a8 13 3c f4 2c 81 bb c0 ef c9 bc fb b6 c9 bc
       0.009012269 -0.0039421264 -0.024650455 -0.024623385
000050 73 82 cb bc 7b c7 71 bc 5d 2f 23 3d b9 f9 75 bc
       -0.024842476 -0.0147570325 0.03984009 -0.015013152
000060 27 97 ad bb 60 3a f3 bc 32 1f 2e 3b e5 26 f7 bb
       -0.00529756 -0.029690921 0.0026568887 -0.0075424784
000070 ae b8 34 3d 37 a9 02 3c 22 9e 53 bb 2d 83 b9 bb
       0.044121437 0.007974914 -0.00322903 -0.0056613893
000080 e6 fb b5 3c dd f2 2b 3c 41 06 a7 3b 2f 00 7f bc
       0.022214841 0.010494915 0.005097181 -0.015564009
000090 cb c1 3a 3a b0 fa 68 bb 93 cb 85 3c a7 64 ed bb
       0.00071242143 -0.0035549812 0.016332423 -0.0072446647
0000a0 52 0d e7 3b 13 08 55 bc 5c c2 56 bc 60 33 6f 3d
       0.0070511485 -0.013002413 -0.013107862 0.058398604
0000b0 5a 99 0c bc f0 f5 3c bc 46 76 3d 3c 3b b1 c9 3c
       -0.008581484 -0.011533245 0.011563843 0.024620643
0000c0 7b 0e 66 bd d7 08 16 3c e1 a9 fb b8 1d 0b 0d 3c
       -0.056166153 0.009157381 -0.00012000255 0.008608607
0000d0 5e 88 9f bc 95 c2 3b 3d 94 89 28 bc 92 7e 95 ba
       -0.019474205 0.045839865 -0.010286707 -0.0011405519
0000e0 b0 dd c8 3b a0 88 66 3c 7c b7 b3 bc e1 7d ce 3c
       0.006129943 0.01407066 -0.021938078 0.025206508
0000f0 d0 d1 b2 3c 24 9e 66 3c 41 40 2c 3d c2 c8 61 bb
       0.021828562 0.01407579 0.042053465 -0.0034451936
000100 d7 49 02 bb 5c 45 26 3c b2 90 32 bc d0 67 7d bc
       -0.0019880438 0.0101483725 -0.010898756 -0.015466645
000110 eb 5f 62 bc f3 ab bd bb ec 64 20 3b 59 43 2c bc
       -0.013816814 -0.00578832 0.0024474217 -0.010514104
000120 c9 02 06 3c 9d 7b 3c bc 2b 60 d1 bb d3 c0 4b bc
       0.008179375 -0.011504081 -0.006389638 -0.01243611
000130 26 20 f4 3b 2e 52 59 bc 65 c6 d7 3a 8a d6 e9 bc
       0.0074501215 -0.013264222 0.0016462324 -0.028544683
000140 9b 55 23 3d 1b b2 b5 3c 8e 95 cd 3c 79 0b 37 bc
       0.03987656 0.022179654 0.025095727 -0.011172169
000150 4a fb 6c bb cc 9c 8e 3b 80 83 c3 bb 7d ca ed 3c
       -0.0036160522 0.0043521877 -0.0059666038 0.029027218
000160 2f be c3 3c 8e 01 a8 bb 59 69 9f bc 04 d7 a1 3c
       0.023894398 -0.0051271385 -0.019459413 0.019755848
000170 0d 5a 15 bd bd bf 47 ba 30 1c cc bb a4 7a b4 3b
       -0.036462832 -0.0007619819 -0.006228946 0.005507784
000180 58 96 0c 3b 2d 9a 80 bc 26 76 30 3a 72 1d 71 3c
       0.0021451917 -0.015698517 0.00067314727 0.014716493
000190 ae 52 94 bc 33 c7 e5 bb c6 65 01 bd 8e ee df bb
       -0.018105831 -0.007012272 -0.0315912 -0.006833858
0001a0 1e b4 32 bd 50 86 56 bc 1b 41 26 3d c2 ad 81 bd
       -0.043628804 -0.013093546 0.040589433 -0.0633197
0001b0 98 bc f8 bb 9d 2c 86 3c c3 71 02 bd a9 f2 9d bc
       -0.0075908415 0.016378695 -0.031846773 -0.019280748
0001c0 e1 24 59 bd 24 7a 91 3b 38 97 ac 3a 0b f5 04 bc
       -0.053013686 0.004439609 0.0013167625 -0.008115063
0001d0 f2 ca 17 3c f4 9e 2a 3b 46 e3 c7 bc 80 5b 90 bc
       0.0092646945 0.0026034685 -0.024400365 -0.017621756
0001e0 c8 25 a3 3c 20 2e 16 3d 4f 9c b0 3c 6c c5 e4 bc
       0.019915476 0.036665082 0.021558909 -0.02792617
0001f0 6f 2d bf 3c f5 a1 0b 3d 62 53 d4 3a b2 57 8e bc
       0.023337094 0.03409 0.0016199166 -0.0173758
000200 c2 f9 80 bc cb 57 05 3d 85 fc de bc ce 52 31 3c
       -0.015744094 0.03255443 -0.02722002 0.010822965
000210 c2 c5 e1 3c 65 ec 03 bc 7b 12 64 bc 6e d1 2a bc
       0.027560119 -0.008051966 -0.013920422 -0.0104259085
000220 95 82 7c bc 86 6c 23 bc 9b 2e 59 3c 4b af 7b bc
       -0.015411993 -0.0099746045 0.0132557405 -0.015361617
000230 cf 38 ac bb c9 61 48 3c e6 c6 87 bc 97 03 98 bc
       -0.0052557955 0.012230345 -0.016574334 -0.0185564
000240 e1 63 ef bb 77 3e 12 bc b7 b9 89 bb 32 1c 83 3c
       -0.0073056077 -0.008926026 -0.004203047 0.016004656
000250 5b 5d 88 bb 3e b5 e6 3c 52 ba 98 3c 8e f5 58 3c
       -0.0041615195 0.028162595 0.018643532 0.013242139
000260 48 9b 06 bc 2f 6f c6 3c 31 5f 04 3c 01 99 98 bb
       -0.008215733 0.024222938 0.008079336 -0.0046569114
000270 0a ff cf bb 48 a8 9a bb 96 81 8c 3d b5 65 38 3c
       -0.0063475417 -0.0047197677 0.06860654 0.011254718
000280 f3 8a a2 3a 35 88 eb 3c b3 2c 07 3d b5 b5 d4 3c
       0.0012401029 0.028751472 0.033001613 0.02596555
000290 39 d1 af 3a df 4a 89 3b 00 3e 20 3c a7 f1 25 3c
       0.0013413794 0.0041898335 0.009780407 0.010128415
0002a0 dd fe 78 bb 68 6a 8f bc 01 1f d2 3c c7 cd 59 bc
       -0.0037993707 -0.017506793 0.02564955 -0.01329369
0002b0 55 c6 c5 3c 5b 0e 06 3d 59 13 1e ba 3d 87 01 bc
       0.024142424 0.032728534 -0.00060301047 -0.0079057785
0002c0 29 f7 85 3b 54 27 2e 3b 49 93 8c bc 41 08 35 3b
       0.0040883017 0.0026573734 -0.017160075 0.0027623328
0002d0 70 da 9c 3c 2c e6 21 3b f6 27 11 bc 78 dc 80 bc
       0.019147128 0.0024703844 -0.008859625 -0.015730128
0002e0 e1 3a ab ba 80 bc 11 3d 2f ee 54 bc 94 88 58 bc
       -0.0013063812 0.03558016 -0.0129962405 -0.0132161565
0002f0 96 3d 2a bd 0b bf 9b 3b 40 0b 94 3c 94 16 6a 3b
       -0.04156264 0.0047529987 0.01807177 0.0035719024
000300 9e 99 5f 3c b2 f7 0e 3b cd 6e b6 3c 70 a4 2a bb
       0.013647465 0.0021815118 0.02226963 -0.0026037954
000310 4c cc 7b bc ca 81 aa 3b d5 3b e1 bc 84 58 b0 ba
       -0.015368532 0.0052034603 -0.02749435 -0.0013454114
000320 2e 4b 27 bb f3 17 26 3c 67 56 ac 3a 01 87 2e bc
       -0.0025526988 0.010137546 0.0013148308 -0.010652305
000330 69 af b5 3b e9 2b 86 bb e1 ef ff 3c 33 89 f6 ba
       0.005544592 -0.00409459 0.031242313 -0.0018809199
000340 a4 e9 81 3b f6 e5 87 3a 6e 80 0d bd 9e 1a 9a bc
       0.0039646197 0.0010368216 -0.03454631 -0.01881152
000350 c7 92 9d bc ff 68 11 bb 29 02 a2 3c bd dd 4b 3c
       -0.019235028 -0.0022187827 0.01977642 0.012443003
000360 5c 36 e4 3c 45 f0 9c bb f2 f1 97 3c ce 12 77 3c
       0.027857952 -0.0047893845 0.018547986 0.015080167
000370 f8 7b 1c bc 40 63 2d 3c fb a4 4c bc 5b f8 e3 bc
       -0.009551041 0.010582745 -0.012490506 -0.027828386
000380 db e1 22 3c 86 ae ec bc 1c aa 58 bc 4b b2 30 bb
       0.009941543 -0.028891813 -0.013224151 -0.002696174
000390 36 0a 97 3c 94 71 d8 3c f9 2a 03 3c 6f 67 37 bd
       0.018437486 0.026421346 0.008005851 -0.044776376
0003a0 e0 42 05 ba 61 5c 2e bc eb 46 87 3c 60 35 7a 3c
       -0.00050835125 -0.010642142 0.016513309 0.015271515
0003b0 37 a0 f0 bb 2e bd 44 3c 5b 85 c8 3c 7c 82 6e ba
       -0.007343318 0.012007995 0.024477651 -0.0009098423
0003c0 75 bc 87 bc 92 6c 01 3d 33 cc 2c bc 22 1e fc 3c
       -0.016569356 0.03159768 -0.010546732 0.030776087
0003d0 55 c3 53 bc 64 45 07 3a 8e 4d be 3c ee 65 d7 bc
       -0.012924989 0.00051601813 0.02323034 -0.026293721
0003e0 6a f8 74 3d a0 41 fb bc 3d 37 7e 3c 4b 12 fc 3c
       0.05980722 -0.03067094 0.0155160995 0.030770442
0003f0 cd 4c 0d bc 6f 98 fc 3c a2 32 34 3b 40 34 66 3b
       -0.008624268 0.030834405 0.0027496 0.0035126358

base_conv3.bias f4 [32]
000000 8c 95 0c 3c 47 dc 1b 3d 7a 55 02 bd 20 d1 a0 3b
       0.008580577 0.03805187 -0.031819798 0.004907742
000010 a8 7d cf bb c0 27 79 bc b6 a3 de 3c 92 17 af 3c
       -0.006332118 -0.015207231 0.027177673 0.021373544
000020 80 da e0 b9 e0 ad dc bb 11 38 25 3d ea d5 f5 3c
       -0.00042887405 -0.0067345947 0.040336672 0.030009229
000030 b8 d3 89 bc a7 f9 24 bd 64 80 0b bc c3 14 f0 bc
       -0.016824588 -0.04027715 -0.008514497 -0.029306775
000040 7e 85 ee 3c 83 57 1e 3d c2 50 f5 3c 8d d9 26 3d
       0.029116388 0.038657676 0.029945735 0.040734816
000050 70 83 10 3b 55 49 25 3d 40 65 d7 bc 7b 15 18 bd
       0.0022051 0.040353138 -0.026293397 -0.03712986
000060 14 0b 58 3c e6 9d b6 3c 48 c1 11 bd 85 71 1b 3d
       0.013186235 0.022292089 -0.035584718 0.037950058
000070 3c 58 63 bc a1 15 1e 3d b6 5b 44 bc ad 43 20 3d
       -0.013876017 0.038594846 -0.011984756 0.03912704

base_conv4.weight f4 [32, 35, 3, 3]
000000 89 19 6f 39 2a 9d ab ba 08 89 81 3c 43 59 05 bd
       0.00022802329 -0.0013093103 0.015812412 -0.03255583
000010 97 b7 c6 3a c3 bb 1f bc 4c 12 05 bc 10 75 3a 3c
       0.0015160915 -0.009749356 -0.008122038 0.011380449
000020 f3 fc f2 3b 8d 6d 74 bc 51 fa bf 3c b4 dc 3c 3c
       0.007415408 -0.014918697 0.02343479 0.011527229
000030 d2 bb f2 3c 58 86 79 3c c1 fb de 3a dc 88 97 bb
       0.029630575 0.015229784 0.0017012284 -0.004624469
000040 f9 1e f3 bc 51 61 5c 3c fb de 8b 3c b6 48 0b bd
       -0.029677855 0.013450936 0.017074099 -0.03400489
000050 7b c0 e5 bb b0 33 a1 3c fd 18 a2 ba 4c dc 05 3c
       -0.007011471 0.019677967 -0.0012367066 0.008170199
000060 76 ac bf 3c 83 1c c9 bc 8b 80 0d bc b6 e0 00 00
       0.023397665 -0.024549728 -0.008636604 8.0611e-41
000070 29 c8 00 80 eb aa 00 00 eb 2b 00 80 25 69 00 80
       -7.1804e-41 6.1314e-41 -1.5755e-41 -3.7719e-41
000080 c6 2a 00 80 6d f7 00 80 60 3a 01 00 55 d1 00 80
       -1.5344e-41 -8.876e-41 1.12777e-40 -7.5094e-41
000090 8e 6d 37 bd 47 82 d1 b9 7f 93 50 3d 55 d3 f8 bc
       -0.044782214 -0.0003996065 0.050921913 -0.030374208
0000a0 36 45 c5 bc d1 6c 3f 3d 0f 7a 0b bd 25 e2 07 3d
       -0.024080854 0.046734635 -0.03405195 0.033174653
0000b0 75 21 9c 3d 78 ec 00 00 f4 22 00 00 56 52 00 80
       0.07623569 8.4829e-41 1.2539e-41 -2.9537e-41
0000c0 5f 03 01 80 6a c8 00 00 7a 4a 00 00 61 8d 00 00
       -9.3045e-41 7.1895e-41 2.6717e-41 5.0717e-41
0000d0 33 4a 00 00 bf 46 00 80 2b 5a 00 80 62 cc 00 80
       2.6618e-41 -2.5379e-41 -3.2346e-41 -7.3319e-41
0000e0 50 de 00 00 39 3a 00 80 7d 59 00 80 52 f9 00 00
       7.975e-41 -2.0886e-41 -3.2102e-41 8.9439e-41
0000f0 f1 ad 00 00 53 c7 00 00 d2 5f 00 00 e6 8e 00 00
       6.2398e-41 7.1504e-41 3.4374e-41 5.1262e-41
000100 e6 ab 00 00 5d 25 00 00 17 4f 00 00 b4 2f 01 80
       6.1666e-41 1.3403e-41 2.8372e-41 -1.08948e-40
000110 f1 58 00 00 7f 20 00 80 08 2c 00 00 5a 37 00 80
       3.1906e-41 -1.1657e-41 1.5795e-41 -1.9856e-41
000120 f9 0a 00 80 33 e4 00 00 36 0b 01 00 77 1b 00 80
       -3.936e-42 8.1862e-41 9.5857e-41 -9.853e-42
000130 78 1f 01 00 ed f3 00 00 de ea 00 00 c7 e8 00 80
       1.03124e-40 8.7504e-41 8.4254e-41 -8.3505e-41
000140 15 e4 00 80 a3 b2 46 bd 51 10 85 3c 85 ee 4d ba
       -8.182e-41 -0.048510205 0.016243132 -0.00078556716
000150 5e 6f 9f bc b8 57 d5 bb f0 51 8d 3c 98 56 30 3c
       -0.019462284 -0.006510701 0.017250985 0.010762833
000160 e1 fd 8b 3c 5e f4 0d 3d a0 09 ef bc d2 bb 4a bd
       0.017088832 0.034656875 -0.029179394 -0.049495526
000170 0e 56 47 3c d3 e6 8b 3b 60 cc c7 bc e9 6b 05 3c
       0.012166513 0.0042694598 -0.024389446 0.008143404
000180 d3 69 9e bc 5b 94 af b8 3c 38 8c 3a 13 b6 94 bc
       -0.01933757 -8.3722836e-05 0.0010697911 -0.018153226
000190 4b 94 8d bc d3 8c 77 3c 18 63 fa bc 77 e3 a2 bc
       -0.017282626 0.015109259 -0.03056483 -0.019883854
0001a0 f3 c7 34 3d cb 99 f6 3c 5f 4f 8c 3c b5 77 87 3d
       0.044136 0.030102631 0.01712769 0.06614629
0001b0 49 20 00 00 b0 1c 00 00 d3 ba 00 00 19 a1 00 80
       1.1582e-41 1.0291e-41 6.702e-41 -5.7791e-41
0001c0 2b 43 01 80 e9 23 00 80 05 15 01 80 cb d1 00 00
       -1.15931e-40 -1.2882e-41 -9.9376e-41 7.526e-41
0001d0 eb 50 01 80 56 56 04 33 cc 32 3c b4 4c 58 60 b4
       -1.20863e-40 3.0812167e-08 -1.7527344e-07 -2.0893748e-07
0001e0 dd 47 ee af de dd 6d 33 44 29 7c b4 a5 c4 66 b4
       -4.334301e-10 5.538265e-08 -2.3484341e-07 -2.1491958e-07
0001f0 e1 f3 54 b4 6d f8 96 b5 9a 3f b1 ba 36 2d ee bb
       -1.9832761e-07 -1.1248172e-06 -0.0013522983 -0.007268573
000200 70 7d 1e bd 6c 31 83 bb 76 d3 5d ba 90 7b 2d 3a
       -0.038693845 -0.0040036943 -0.0008461991 0.00066178385
000210 df 3b d2 bc 75 f2 06 bd d1 79 f9 bc 73 45 01 00
       -0.025663314 -0.03294607 -0.030453594 1.16749e-40
000220 8f ef 00 80 9e 48 00 00 cc 38 01 00 6d 0d 00 80
       -8.5937e-41 2.605e-41 1.1221e-40 -4.816e-42
000230 82 03 01 00 9d 32 00 00 7e 54 01 00 0a a4 00 00
       9.3094e-41 1.8157e-41 1.22146e-40 5.8846e-41
000240 2d c2 00 80 24 7e 00 00 e6 4f 01 00 61 a0 00 00
       -6.9657e-41 4.5251e-41 1.20498e-40 5.7533e-41
000250 39 1f 01 80 c5 46 00 80 b0 a4 00 00 c1 a0 00 80
       -1.03036e-40 -2.5387e-41 5.9079e-41 -5.7668e-41
000260 30 09 01 00 99 f9 00 80 32 71 01 00 f1 89 00 00
       9.5131e-41 -8.9539e-41 1.32442e-40 4.9484e-41
000270 15 1f 01 80 fb 63 00 80 ba b0 00 80 cc 52 01 00
       -1.02986e-40 -3.5866e-41 -6.3398e-41 1.21537e-40
000280 60 37 00 80 86 88 01 00 11 aa d8 bb 80 98 f8 bb
       -1.9865e-41 1.40811e-40 -0.0066120704 -0.007586539
000290 2b a1 35 3d 9b da 67 bd 9e 3f 13 bd 42 99 51 3d
       0.044343155 -0.056604963 -0.035949342 0.05117155
0002a0 46 60 f8 bc 4c 67 5a b9 56 d7 9e 3d 41 db d7 bb
       -0.030319344 -0.00020828581 0.07755916 -0.0065874164
0002b0 c0 01 55 3c 3b e6 65 3d e7 1f 25 3c 45 5e 45 3d
       0.0130009055 0.056127768 0.010078407 0.048185606
0002c0 a1 bf 92 3d 1a 73 a1 bc 42 86 53 3c 4b a7 3d 3d
       0.071654566 -0.019708205 0.0129104275 0.04630212
0002d0 9c 0d 00 80 63 15 01 00 d0 6c 00 00 72 7b 00 80
       -4.882e-42 9.9508e-41 3.9035e-41 -4.4284e-41
0002e0 8e f6 00 80 f7 f8 00 80 c1 a4 00 00 0d 30 01 80
       -8.8447e-41 -8.9312e-41 5.9103e-41 -1.09073e-40
0002f0 f0 62 00 00 c3 ed 00 80 24 e3 00 00 91 bc 00 00
       3.5492e-41 -8.5293e-41 8.1483e-41 6.7645e-41
000300 cb 8d 00 00 34 43 00 00 7c f2 00 00 7a eb 00 80
       5.0866e-41 2.4108e-41 8.6987e-41 -8.4473e-41
000310 c7 8d 00 80 28 59 00 80 18 a9 00 00 1b 8a 00 00
       -5.086e-41 -3.1983e-41 6.066e-41 4.9543e-41
000320 35 a6 00 80 11 92 00 00 8f 9b 00 80 53 e4 00 00
       -5.9624e-41 5.2399e-41 -5.5804e-41 8.1907e-41
000330 a4 d6 00 00 71 81 00 80 3b d6 00 00 ef 90 01 00
       7.6999e-41 -4.6435e-41 7.6851e-41 1.43828e-40
000340 cb 0e 00 80 a5 ec 00 00 04 05 00 00 fd 0e 00 80
       -5.307e-42 8.4892e-41 1.799e-42 -5.377e-42
000350 78 3a 01 00 39 c2 00 80 bf 93 00 00 c4 96 00 00
       1.1281e-40 -6.9674e-41 5.3001e-41 5.4085e-41
000360 78 55 00 80 3d 5a 00 00 ad c5 00 00 64 14 01 00
       -3.066e-41 3.2371e-41 7.0913e-41 9.915e-41
000370 7a f6 00 00 66 e1 01 00 e7 63 00 80 f7 02 00 00
       8.8419e-41 1.72693e-40 -3.5838e-41 1.064e-42
000380 9c 13 01 80 03 f2 00 00 9f cc 00 00 be d5 00 00
       -9.887e-41 8.6817e-41 7.3404e-41 7.6676e-41
000390 2a 22 00 00 05 4b 00 00 c9 87 00 80 45 cb 00 80
       1.2256e-41 2.6912e-41 -4.871e-41 -7.292e-41
0003a0 1e 3c 00 80 11 57 01 00 4e 8f 00 80 79 50 00 80
       -2.1566e-41 1.23069e-40 -5.1408e-41 -2.8868e-41
0003b0 ef a1 00 00 a4 fe 00 80 23 df 00 00 5f e4 00 00
       5.8091e-41 -9.1348e-41 8.0046e-41 8.1924e-41
0003c0 68 b8 00 00 c1 f5 00 80 24 ad 00 80 40 23 65 bd
       6.6152e-41 -8.816e-41 -6.2111e-41 -0.05594182
0003d0 30 b6 a7 bc 5d 5c 90 bc 4b 70 1b bd 46 68 87 bc
       -0.020472616 -0.017622167 -0.037948888 -0.016529214
0003e0 0b 8a d1 3c ff 6d fb bb bb 84 31 3b 1c f2 46 3d
       0.02557852 -0.0076730247 0.002708717 0.048570737
0003f0 4a 65 20 bd be 8f ba bc 61 bf c1 3b 6b 6f 08 bd
       -0.039159097 -0.02277362 0.0059127067 -0.03330938

base_conv4.bias f4 [32]
000000 b1 46 63 3c 16 86 27 3d fc 4d d1 bc 99 f5 a5 bb
       0.013871835 0.04089936 -0.025549881 -0.005064678
000010 01 da 84 ba fd 1d 34 3d 8a 77 75 bd 1b 3e 92 3d
       -0.0010135771 0.04397391 -0.059928454 0.07140752
000020 75 35 66 3c ff 12 83 3b 34 7b 01 3d 0b 81 87 3b
       0.014050831 0.0040000672 0.031611636 0.004135256
000030 ae a3 de 3c 9b a9 1d 3d 09 5c 93 3b 1c d0 d4 3c
       0.027177658 0.038491827 0.0044970554 0.02597814
000040 02 29 6d b6 28 8a ad bc 58 18 2e 3d 7c 5e 31 3d
       -3.5339622e-06 -0.021184042 0.042503685 0.043302998
000050 18 08 93 bc d4 01 03 bd 19 31 93 3c 76 a6 f1 3b
       -0.017948195 -0.031984165 0.017967748 0.00737458
000060 a7 09 3c 3d cc ce 78 3d 55 71 3b 3c da 2a 1f 3d
       0.045907643 0.060744092 0.011440595 0.038859226
000070 68 bb c6 3c e8 98 08 bb 06 7a 33 3b dd c2 4d 3d
       0.024259284 -0.0020843092 0.0027385964 0.050234664

base_conv5.weight f4 [3, 32, 3, 3]
000000 da 34 bf bc 0d 5b aa 3c 5e 93 39 3d 7c 84 9e b9
       -0.023340631 0.02079537 0.045306556 -0.00030234817
000010 e1 55 61 3b 54 92 87 3d 24 64 a7 3c 99 ba 0d 3d
       0.0034383463 0.06619707 0.020433493 0.03460178
000020 95 70 d8 3d 7d f1 9b 3c c7 e9 53 3b 9f 93 b6 bc
       0.10568348 0.019036049 0.0032335387 -0.022287188
000030 f0 9f 82 bc e5 90 25 3d 31 46 e7 3c 1f 3c bd 3c
       -0.015945405 0.040421385 0.028231712 0.023099957
000040 cf 48 3b 3d c1 50 d2 3c 7c 31 2b bc a9 19 f4 bb
       0.045723733 0.025673272 -0.01044881 -0.007449348
000050 71 a5 95 bc 7a c5 9d 3c 40 b0 4e 3c 57 c6 4d bd
       -0.018267365 0.019259203 0.012615263 -0.05023798
000060 f3 43 eb 3b 42 dd 03 3b 8a 7a 40 bd 24 4f 8e 3d
       0.007179731 0.0020120894 -0.046991862 0.069486886
000070 70 fd 79 3d 04 43 d1 3d dd b0 6d 3c 99 f9 48 3c
       0.061032712 0.1021786 0.0145074995 0.01226654
000080 54 b2 14 3d de 0f 93 3c bc c3 f0 3c 85 ff e5 3c
       0.03630288 0.017951902 0.029390208 0.028075943
000090 ee 74 6e bb 88 c6 b1 3c 0d 90 4d 3d ef 0a a5 bc
       -0.0036385613 0.021701112 0.050186206 -0.020146815
0000a0 f8 07 e9 bb 76 20 11 3c e2 48 75 bd 60 42 3a bd
       -0.0071115457 0.008857837 -0.05988396 -0.045473456
0000b0 97 f0 3a bc 9a ab 8f 3d 80 ba 34 3d ce fc fb 3b
       -0.0114099 0.07015152 0.044123173 0.007690049
0000c0 d4 83 d3 3d 29 c2 ee 3c 1a 43 ff bb 1e f6 c2 3d
       0.103278786 0.029145317 -0.0077899816 0.095195994
0000d0 7a 80 e6 b8 62 4d f5 bc 94 40 f1 bc 9c cb e9 bb
       -0.00010991185 -0.029944126 -0.029449739 -0.007134868
0000e0 cd 10 b5 bc e6 87 13 bd 70 f9 a1 bd 0f c0 72 3b
       -0.022102738 -0.036018275 -0.079089046 0.0037040745
0000f0 bc 20 f7 bc 0a 77 be bc 99 6f 58 3c be 4c 55 3c
       -0.030166976 -0.023250122 0.013210201 0.013018785
000100 4b 9f 47 3d ae ba be 3c 75 9b b6 3c 94 16 8a 3d
       0.048735898 0.023282375 0.022290925 0.06742588
000110 17 3b 32 3b 1d 96 03 3c 2f 9a 6a 3b 4f 38 c4 bc
       0.0027195865 0.008031395 0.0035797467 -0.023952631
000120 d1 72 7f 3d c4 88 aa 3d 6d c7 ac 3b 1e 99 74 3d
       0.062365357 0.08326867 0.005272797 0.059716336
000130 66 10 ff 3c 8b 5e 71 3c bd aa 72 3d f5 24 77 3d
       0.03113575 0.014732013 0.05924486 0.06033798
000140 77 70 05 3c 0a ed e0 3c aa 60 74 3c ce f2 6e bc
       0.0081444895 0.027456779 0.014915625 -0.014584256
000150 17 7b 53 3b cf 40 5b bc 15 30 c8 3c ab 94 49 bc
       0.0032269412 -0.013382151 0.02443699 -0.012303512
000160 67 d0 2d 3c fb ce e8 3c 5b 35 f2 3c cf 8a 67 3d
       0.010608769 0.028419008 0.029566457 0.056528863
000170 50 db dc 3c a0 83 7c 3c 7a 60 b2 3b 70 87 ae 3c
       0.026960045 0.015412241 0.00544363 0.021304816
000180 63 db a8 bc 21 43 c4 3c 7c 2c 6b 3c 5b 21 69 3d
       -0.020612424 0.02395779 0.014353868 0.056916576
000190 2e ef 0b bb f8 79 3d 3d 78 d2 ec 3c e2 59 0f 3d
       -0.002135228 0.046258897 0.028908953 0.03499783
0001a0 e3 fd 3d 3d d7 b0 1f 3d 69 f1 1c bc 0b 10 73 3d
       0.046384703 0.038987007 -0.009579041 0.05934147
0001b0 d0 48 c3 3c 88 fb d7 3c 44 96 5f 3c b1 33 85 3c
       0.02383843 0.026365057 0.013646666 0.01626
0001c0 a3 c8 6e 3d 83 17 d8 3c 69 24 59 3c bd 36 87 3c
       0.05829681 0.026378399 0.01325331 0.016505593
0001d0 64 e7 97 bb 4e 8d c1 3d e0 d3 94 3d 80 fc e5 3c
       -0.004635738 0.0945078 0.072669744 0.028074503
0001e0 39 70 4a 3d ac a0 ed 3a 21 42 bc 3b 7a 6f 12 3d
       0.04942343 0.0018129549 0.005745188 0.035750844
0001f0 76 eb 18 3d 9d 22 e2 3c e2 a0 ec bb 21 57 13 bd
       0.037333928 0.027604396 -0.007221327 -0.035971764
000200 4b fb 7a bc ae 67 d9 3c 3e 8d 4c 3c b3 07 cc bb
       -0.015318702 0.026538696 0.012484847 -0.0062265038
000210 0d 27 f6 3d 83 d1 86 3d 19 40 42 3d 60 63 43 bd
       0.12019167 0.0658293 0.04742441 -0.047702193
000220 53 ef 94 39 a6 ad 8d 3c 6c 21 45 3c ca 6b 91 3d
       0.0002840707 0.017294716 0.012031894 0.07100637
000230 1d 82 6d 3d 08 df 8c 3d 96 04 f9 3d 7e 4d 0c 3e
       0.057985414 0.06878477 0.12159078 0.13701436
000240 16 d3 fd b9 2a 3b 05 ba c2 4e 18 ba 6b 23 f7 b9
       -0.00048413192 -0.00050823635 -0.00058100757 -0.000471379
000250 e2 56 00 ba da 77 10 ba 9a ed f7 b9 f9 fd 07 ba
       -0.0004895759 -0.00055110233 -0.00047288538 -0.0005187686
000260 a3 8b 0a ba a9 23 7b ba c1 d8 4c 3c 92 0e 4f 3d
       -0.000528509 -0.0009580204 0.01250285 0.050551005
000270 7d fe 43 bc c8 15 cb 3c 87 59 47 bb a8 60 05 bc
       -0.01196253 0.02479066 -0.0030418353 -0.00814072
000280 2f 77 db bc 89 90 0e bd c6 88 ff bb b1 25 2f 3c
       -0.02679023 -0.03480581 -0.007798287 0.010690139
000290 a3 a7 d1 3c d1 7a 56 3c ab aa 93 3c e6 12 9b 3d
       0.02559263 0.013090805 0.018025717 0.07571964
0002a0 21 2b 1e 3d 4d 77 44 3d 75 d2 6f bc fc cf 8b ba
       0.03861535 0.047965337 -0.014637579 -0.0010666843
0002b0 53 a7 c3 3b ab f7 ab 3c 5f f5 b2 3c d0 39 83 3b
       0.0059708743 0.02099212 0.021845518 0.0040046945
0002c0 47 69 49 3d 83 77 5d bc ac e6 11 3d a6 2b 9f 3c
       0.049172666 -0.013517263 0.035620376 0.019429993
0002d0 30 4b 07 3d b0 64 93 3d 35 3d eb 3d eb c5 9b bc
       0.03303069 0.07196939 0.11486284 -0.019015273
0002e0 dc 11 2a bc 3e 83 40 3d 82 fe 2e 3b 2e c4 ff bc
       -0.010380235 0.047000162 0.0026701991 -0.031221475
0002f0 15 df 4a 3c 4f 3b 9a ba f5 d8 2b 3c be 63 0f 3c
       0.012382288 -0.0011766943 0.010488738 0.008751808
000300 98 f1 5a bc 94 c1 1c bc 43 2f 20 bd e7 92 80 bc
       -0.0133632645 -0.009567637 -0.039107572 -0.015695048
000310 5d 1f f0 3c d6 e4 45 bb 0f 11 9a bc fc 2f 23 3c
       0.02931183 -0.0030196211 -0.018806962 0.009960171
000320 28 94 8b bc 3f 57 35 3c 5d 05 7d 3d a8 5d ef bc
       -0.01703842 0.011068164 0.061772693 -0.029219463
000330 78 67 37 bd 41 a3 12 3c 6c f6 85 bc cb 26 d7 bc
       -0.04477641 0.008950056 -0.016352855 -0.026263615
000340 69 01 d3 bc 01 14 40 bc 4b b5 13 bd 1e 39 9e bc
       -0.025757508 -0.011723519 -0.036061566 -0.019314345
000350 a3 58 9e bc 10 f9 09 3c 31 1d da 3c 1b b2 38 bc
       -0.019329375 0.0084211975 0.026625248 -0.011272932
000360 f1 13 42 3d 41 20 81 3c 78 ca 8e 3d 49 36 90 3d
       0.0473823 0.01576245 0.069722116 0.07041604
000370 e8 2b 98 3d 92 b7 09 3d 0d ad 5e 3d e3 b6 67 3d
       0.074302495 0.033622332 0.054364253 0.0565709
000380 d2 88 2a 3d cd f7 1e bd 30 24 92 bb ad fe 0e 3b
       0.04163439 -0.03881054 -0.0044598803 0.002181928
000390 59 e6 9f bc 01 c3 9d 3d 29 8a 86 3d 4d 00 69 bc
       -0.019519018 0.0770321 0.06569321 -0.014221263
0003a0 5a 53 6f 3d ca e2 41 bc c6 15 06 3d 4d 3f 64 3d
       0.0584291 -0.011833856 0.03273561 0.05572443
0003b0 1b 21 b4 3d a4 a7 91 bb b3 eb 04 3d 21 75 a4 3d
       0.08795377 -0.004445033 0.032451343 0.08030153
0003c0 56 59 1a 3c fd 66 c5 3c d6 43 07 3d 68 25 d8 bb
       0.009420713 0.02409696 0.033023678 -0.006596256
0003d0 97 cc d7 bb 01 35 8d bb c9 7b 2d bb 29 96 b2 3b
       -0.0065856683 -0.004309297 -0.0026471487 0.0054500294
0003e0 f6 2b 23 3b fc 3c 39 bc 3e a5 a6 bc 42 36 56 bc
       0.002489803 -0.011306044 -0.020342465 -0.0130744595
0003f0 64 42 d3 bc ec 19 b7 3b cf 54 3a 3c 1b 76 10 bc
       -0.025788493 0.005587807 0.011372759 -0.008817221

base_conv5.bias f4 [3]
000000 4f 2f a4 3c ee c1 d1 3c 2e 55 a7 3d
       0.02004209 0.025605168 0.081705436

cond_conv1.weight f4 [3, 1, 3, 3]
000000 76 b3 6a bd a9 fe da bb 1f 05 79 bd ca 3f 41 bd
       -0.057300054 -0.00668319 -0.0607959 -0.047179975
000010 f3 22 37 3d a7 76 02 3b ef 17 3d bd 48 d5 b0 bc
       0.044711065 0.0019907148 -0.046165403 -0.021586075
000020 6d ff 58 bd a0 3e 00 00 d2 22 00 00 86 5d 00 00
       -0.052977968 2.2466e-41 1.2491e-41 3.355e-41
000030 8f 26 00 00 37 66 00 80 17 92 01 80 6f 74 00 80
       1.3832e-41 -3.6668e-41 -1.44243e-40 -4.1769e-41
000040 b5 1d 00 80 ec dd 00 80 2c a7 98 3d 83 f2 20 3b
       -1.0657e-41 -7.961e-41 0.074537605 0.002455861
000050 a7 8f e0 bd 5d cb ca 3d 79 77 e5 3c e3 79 96 bd
       -0.109648995 0.0990207 0.02801107 -0.07347467
000060 7d ff cd 3d 69 f1 18 3d 6e 81 7b bd
       0.10058496 0.0373396 -0.06140273

cond_conv1.bias f4 [3]
000000 82 48 99 3e 50 d9 75 ba 92 45 ac 3d
       0.29938132 -0.00093783904 0.08411707

cond_conv2.weight f4 [32, 3, 3, 3]
000000 cd 51 00 00 40 85 00 80 25 94 01 80 e0 77 00 80
       2.9345e-41 -4.7801e-41 -1.4498e-40 -4.3003e-41
000010 5b 4c 00 00 2d 28 00 80 bd 7c 00 00 37 76 00 80
       2.7391e-41 -1.4412e-41 4.4748e-41 -4.2407e-41
000020 9d 87 00 00 ea c3 00 80 46 f9 01 80 12 28 00 00
       4.8649e-41 -7.0281e-41 -1.81258e-40 1.4375e-41
000030 2b 1b 00 00 f3 6f 00 80 83 d3 00 00 37 5a 00 00
       9.746e-42 -4.016e-41 7.5876e-41 3.2363e-41
000040 d3 b8 01 80 e0 6d 00 00 0f ea 00 00 24 b2 01 00
       -1.58138e-40 3.9416e-41 8.3964e-41 1.5574e-40
000050 e6 b0 01 80 c4 75 01 00 cf 33 01 00 a5 15 01 80
       -1.55295e-40 1.34082e-40 1.10421e-40 -9.96e-41
000060 1e e4 00 00 a0 61 00 80 db 79 00 00 9a c6 0d 3d
       8.1833e-41 -3.5021e-41 4.3714e-41 0.03461323
000070 b2 d8 61 3d a4 74 58 3d 64 f3 12 3c 76 da 3c 3d
       0.055138297 0.052845612 0.008969162 0.046106778
000080 12 41 e3 3c e7 fd 41 bd c8 23 b6 39 5e 8c 51 3b
       0.027740989 -0.04736128 0.00034740404 0.0031974535
000090 4f 8a 00 00 45 58 01 80 c7 3b 00 00 9b 9a 01 00
       4.9616e-41 -1.235e-40 2.1444e-41 1.47297e-40
0000a0 eb 3d 01 00 f5 73 00 00 61 53 00 80 d4 f2 01 00
       1.14047e-40 4.1598e-41 -2.9911e-41 1.78946e-40
0000b0 0d 4e 00 80 e3 a1 ce bd 72 de 93 bc cd 15 9d 3c
       -2.8e-41 -0.10089471 -0.018050406 0.019175434
0000c0 be ad e3 bd f1 4e bf bc 96 9a 10 3c 4a 33 07 be
       -0.11117123 -0.023353072 0.008825919 -0.13203159
0000d0 bf 3e 42 bd 74 4f 14 bd 53 1d bb 3d 55 de d1 3d
       -0.04742312 -0.036208585 0.091364525 0.102474846
0000e0 45 ce aa 3d 71 93 22 3d 94 31 81 3d a3 e1 81 3d
       0.08340124 0.039691392 0.063082844 0.06341865
0000f0 ee bd b0 3d f2 d5 ae 3d e6 97 b0 3d df 18 01 80
       0.08629976 0.085369006 0.08622722 -1.00758e-40
000100 86 a5 00 00 17 1a 01 00 78 eb 01 00 02 09 01 80
       5.9379e-41 1.01195e-40 1.76306e-40 -9.5067e-41
000110 2e 36 01 00 8a 79 00 80 67 36 00 80 b8 25 00 80
       1.11272e-40 -4.36e-41 -1.9516e-41 -1.3531e-41
000120 79 89 83 bc f2 b9 e7 3c 9d 81 79 3d 82 20 b8 bb
       -0.016056763 0.028286908 0.060914624 -0.0056191096
000130 91 ec de 3c 51 ff fc 3c 70 bc dc bc 6a 74 8e 3b
       0.027212413 0.030883463 -0.026945323 0.0043473737
000140 16 9a 27 3d f3 12 8e 3d 64 e6 8a 3d 18 eb 4d 3d
       0.040918432 0.06937208 0.06782225 0.05027303
000150 01 f8 85 3d 5f 97 46 3d 8b 88 9e 3d 2f 5d b5 3d
       0.065414436 0.048484202 0.07740887 0.08855664
000160 43 27 8a 3d f5 67 b9 3d 76 11 01 00 69 bd 00 00
       0.0674577 0.09053031 9.81e-41 6.7948e-41
000170 ef 00 01 80 c9 3a 00 80 b0 b8 00 80 fb a7 00 00
       -9.217e-41 -2.1088e-41 -6.6253e-41 6.026e-41
000180 75 a9 00 80 d9 22 00 00 90 1e 00 00 27 c4 f5 bc
       -6.079e-41 1.2501e-41 1.0964e-41 -0.03000076
000190 8e 33 1d 3c c5 7d 76 3d 19 9a 7c bc 55 73 28 3d
       0.009594811 0.060178537 -0.015417599 0.041125614
0001a0 87 33 65 3d 6a b2 15 bd 4d f8 56 3c 2e ea 19 3d
       0.055957343 -0.036547102 0.013120723 0.037576847
0001b0 91 20 52 3d 8e 85 ab 3d 1a 00 94 3d 56 62 63 3d
       0.05130059 0.08375083 0.07226582 0.055513702
0001c0 4f 5f c0 3d ae 96 68 3d 70 bc f7 3d cb 0b a4 3d
       0.09393179 0.056784324 0.120964885 0.08010062
0001d0 4d b2 bf 3d 79 0b 00 80 60 8c 00 80 56 47 00 80
       0.0936018 -4.116e-42 -5.0357e-41 -2.559e-41
0001e0 79 50 00 00 b7 d6 00 00 6e b0 00 80 d7 70 00 80
       2.8868e-41 7.7025e-41 -6.3291e-41 -4.048e-41
0001f0 1d 8c 01 00 3d b4 00 80 2e 60 e7 bc e3 f3 03 3d
       1.42099e-40 -6.4657e-41 -0.028244104 0.03221501
000200 5e cd 80 3d 07 d2 41 bc 51 90 14 3d 48 11 19 3d
       0.06289171 -0.01182986 0.036270443 0.037369996
000210 8e d0 8c bc 51 d7 84 bb ce 48 d3 3c a2 c0 ab 3d
       -0.01718929 -0.004053988 0.025791552 0.08386351
000220 a7 6e 9f 3d 1a 8a b1 3d 4b d9 d0 3d dd 2a 38 3d
       0.07784777 0.08668919 0.10197695 0.044962753
000230 14 ab 81 3d 75 4d 91 3d ef c0 43 3d 6f 5b 73 3d
       0.06331459 0.07094852 0.047791418 0.05941337
000240 4f f5 00 80 c3 32 00 00 3a ce 00 80 b8 00 01 00
       -8.8e-41 1.821e-41 -7.398e-41 9.2093e-41
000250 4c df 00 00 d4 cc 00 80 19 0e 02 80 3e 32 00 80
       8.0104e-41 -7.3478e-41 -1.88728e-40 -1.8024e-41
000260 6d ed 00 00 4e 73 5c bc f1 5f 98 3c 78 97 7f 3d
       8.5172e-41 -0.013455225 0.018600436 0.06240031
000270 0c 64 93 ba 74 ce fc 3c e6 df 44 3d 8b 05 ab bc
       -0.0011245026 0.030860163 0.04806509 -0.020876667
000280 09 16 7d 3c a1 25 4f 3d 5e 0b 01 80 2f cf 00 00
       0.015447148 0.050572995 -9.5913e-41 7.4323e-41
000290 fa a5 00 00 13 0b 00 00 0f 68 01 80 c9 7d 00 00
       5.9541e-41 3.973e-42 -1.29165e-40 4.5123e-41
0002a0 84 c0 01 80 af 14 01 80 49 21 00 80 9d f9 00 80
       -1.60897e-40 -9.9255e-41 -1.194e-41 -8.9544e-41
0002b0 90 75 00 80 4a 50 00 00 e2 b5 01 00 b5 56 01 00
       -4.2173e-41 2.8802e-41 1.57083e-40 1.2294e-40
0002c0 02 19 01 00 8f fe 00 80 1f c9 00 80 38 ba 00 00
       1.00807e-40 -9.1318e-41 -7.2149e-41 6.6803e-41
0002d0 c9 3d 00 80 a0 09 00 00 93 54 00 80 3b b2 00 80
       -2.2164e-41 3.453e-42 -3.034e-41 -6.3937e-41
0002e0 fe 66 00 00 7d 96 00 80 57 f9 00 80 8d df 00 00
       3.6947e-41 -5.3985e-41 -8.9446e-41 8.0195e-41
0002f0 f6 9d 00 80 65 3d 49 b6 2e e0 79 b6 e1 be 57 b6
       -5.6666e-41 -2.998707e-06 -3.723438e-06 -3.2148603e-06
000300 26 3a 44 b6 bd b6 56 b6 c1 cb a7 b5 29 8a 67 b6
       -2.9240123e-06 -3.1994853e-06 -1.250177e-06 -3.4502102e-06
000310 53 60 d9 b3 24 a4 ba b5 bb 33 01 80 a6 2c 01 80
       -1.0122371e-07 -1.3905851e-06 -1.10393e-40 -1.07852e-40
000320 5f 84 01 80 35 14 00 00 55 80 00 80 8e 01 00 00
       -1.39321e-40 7.249e-42 -4.6037e-41 5.58e-43
000330 56 cb 00 00 e9 32 00 00 f6 ef 00 00 b8 50 01 36
       7.2943e-41 1.8263e-41 8.6082e-41 1.9269482e-06
000340 74 b5 32 36 8a f1 3e 36 c4 1b fa 34 87 96 ea b2
       2.6629687e-06 2.84528e-06 4.658633e-07 -2.7309637e-08
000350 54 7d 29 36 99 3f fe 35 de 6b 24 36 e7 b3 c0 34
       2.5255913e-06 1.8942984e-06 2.4500691e-06 3.5893683e-07
000360 d9 ff 71 3d 7c 6f 30 3d 9b 91 52 3d bf 2c 56 3d
       0.059081886 0.04307507 0.05140839 0.052288767
000370 b4 2f 05 3d f4 5c 1c 3d dd 4d 90 3d 2d b0 a1 3d
       0.032516196 0.038174585 0.07046101 0.07894931
000380 3d 6f 61 3d 25 5f 00 80 aa 72 01 80 13 dd 01 80
       0.055037726 -3.4131e-41 -1.32969e-40 -1.71142e-40
000390 45 de 00 00 53 4c 01 00 bf 0f 00 00 09 65 00 00
       7.9735e-41 1.19215e-40 5.649e-42 3.6245e-41
0003a0 bb 1f 01 80 6f 39 00 00 4c a4 35 3d 51 6b c3 3c
       -1.03218e-40 2.0603e-41 0.04434614 0.023854883
0003b0 0e 2f d4 3c 6b 7b 61 3d 8f 59 a7 3c 3d e2 88 3c
       0.025901344 0.05504934 0.020428447 0.016709441
0003c0 06 ed fc 3c 55 e8 a1 3c 6d ee c6 3c f3 7d d2 3d
       0.03087474 0.019764105 0.024283612 0.10277929
0003d0 25 25 df 3d 4e 84 a6 3d c5 7c 89 3d 12 6d 89 3d
       0.10895757 0.08130704 0.06713251 0.06710257
0003e0 23 07 0b 3d db d0 da 3d 90 7e cb 3d 52 f3 ba 3d
       0.033942353 0.10684367 0.09936249 0.09128441
0003f0 91 bb 01 80 88 68 00 00 95 e1 00 80 6b 89 00 00
       -1.59122e-40 3.7499e-41 -8.0924e-41 4.9296e-41

cond_conv2.bias f4 [32]
000000 92 52 3f 81 ed 81 82 3d 06 1c 0d 3e 3c 54 66 3e
       -3.51404e-38 0.063724376 0.13780221 0.2249307
000010 de cb 12 3e c2 07 08 3e b4 50 06 8c ef 7d ef 35
       0.14335582 0.1328421 -1.034727e-31 1.7843539e-06
000020 55 15 2e 3d 84 02 98 3d fa f5 ce 3d 7c e0 91 9c
       0.042500813 0.07422355 0.1010551 -9.653323e-22
000030 4c a8 db 3d 57 e2 c9 a6 fc 63 24 3e 0d c1 54 3e
       0.107254595 -1.4008526e-15 0.16053766 0.20776768
000040 fb 43 ea 3d 39 b3 e1 3d dc 4c 58 3e d3 49 03 9d
       0.114387475 0.11020512 0.2112307 -1.7375872e-21
000050 9a 88 fe 3d 72 46 69 b6 d7 86 43 3e fb 39 ba 3d
       0.124283984 -3.476071e-06 0.19094406 0.0909309
000060 41 04 ea ba 3a 0d 32 98 2e ee 28 3e d2 53 34 3e
       -0.0017854051 -2.3012638e-24 0.16497108 0.176101
000070 04 3c 57 3e 2d 64 25 9f a3 b2 77 ba 39 8a a9 bc
       0.21018988 -3.5022973e-20 -0.0009448921 -0.020695793
